…
The value is the same before and after calling `init_weights` of EncoderDecoder  

backbone.norm_prelu_2.0.bias - torch.Size([256]): 
The value is the same before and after calling `init_weights` of EncoderDecoder  

backbone.norm_prelu_2.1.weight - torch.Size([256]): 
ConstantInit: val=0, bias=0 

decode_head.conv_seg.weight - torch.Size([21, 256, 1, 1]): 
NormalInit: mean=0, std=0.01, bias=0 

decode_head.conv_seg.bias - torch.Size([21]): 
NormalInit: mean=0, std=0.01, bias=0 
2023-02-13 22:27:03,297 - mmseg - INFO - EncoderDecoder(
  (backbone): CGNet(
    (stem): ModuleList(
      (0): ConvModule(
        (conv): Conv2d(3, 32, kernel_size=(3, 3), stride=(2, 2), padding=(1, 1), bias=False)
        (bn): _BatchNormXd(32, eps=0.001, momentum=0.1, affine=True, track_running_stats=True)
        (activate): PReLU(num_parameters=32)
      )
      (1): ConvModule(
        (conv): Conv2d(32, 32, kernel_size=(3, 3), stride=(1, 1), padding=(1, 1), bias=False)
        (bn): _BatchNormXd(32, eps=0.001, momentum=0.1, affine=True, track_running_stats=True)
        (activate): PReLU(num_parameters=32)
      )
      (2): ConvModule(
        (conv): Conv2d(32, 32, kernel_size=(3, 3), stride=(1, 1), padding=(1, 1), bias=False)
        (bn): _BatchNormXd(32, eps=0.001, momentum=0.1, affine=True, track_running_stats=True)
        (activate): PReLU(num_parameters=32)
      )
    )
    (inject_2x): InputInjection(
      (pool): ModuleList(
        (0): AvgPool2d(kernel_size=3, stride=2, padding=1)
      )
    )
    (inject_4x): InputInjection(
      (pool): ModuleList(
        (0): AvgPool2d(kernel_size=3, stride=2, padding=1)
        (1): AvgPool2d(kernel_size=3, stride=2, padding=1)
      )
    )
    (norm_prelu_0): Sequential(
      (0): _BatchNormXd(35, eps=0.001, momentum=0.1, affine=True, track_running_stats=True)
      (1): PReLU(num_parameters=35)
    )
    (level1): ModuleList(
      (0): ContextGuidedBlock(
        (conv1x1): ConvModule(
          (conv): Conv2d(35, 64, kernel_size=(3, 3), stride=(2, 2), padding=(1, 1), bias=False)
          (bn): _BatchNormXd(64, eps=0.001, momentum=0.1, affine=True, track_running_stats=True)
          (activate): PReLU(num_parameters=64)
        )
        (f_loc): Conv2d(64, 64, kernel_size=(3, 3), stride=(1, 1), padding=(1, 1), groups=64, bias=False)
        (f_sur): Conv2d(64, 64, kernel_size=(3, 3), stride=(1, 1), padding=(2, 2), dilation=(2, 2), groups=64, bias=False)
        (bn): _BatchNormXd(128, eps=0.001, momentum=0.1, affine=True, track_running_stats=True)
        (activate): PReLU(num_parameters=128)
        (bottleneck): Conv2d(128, 64, kernel_size=(1, 1), stride=(1, 1), bias=False)
        (f_glo): GlobalContextExtractor(
          (avg_pool): AdaptiveAvgPool2d(output_size=1)
          (fc): Sequential(
            (0): Linear(in_features=64, out_features=8, bias=True)
            (1): ReLU(inplace=True)
            (2): Linear(in_features=8, out_features=64, bias=True)
            (3): Sigmoid()
          )
        )
      )
      (1): ContextGuidedBlock(
        (conv1x1): ConvModule(
          (conv): Conv2d(64, 32, kernel_size=(1, 1), stride=(1, 1), bias=False)
          (bn): _BatchNormXd(32, eps=0.001, momentum=0.1, affine=True, track_running_stats=True)
          (activate): PReLU(num_parameters=32)
        )
        (f_loc): Conv2d(32, 32, kernel_size=(3, 3), stride=(1, 1), padding=(1, 1), groups=32, bias=False)
        (f_sur): Conv2d(32, 32, kernel_size=(3, 3), stride=(1, 1), padding=(2, 2), dilation=(2, 2), groups=32, bias=False)
        (bn): _BatchNormXd(64, eps=0.001, momentum=0.1, affine=True, track_running_stats=True)
        (activate): PReLU(num_parameters=64)
        (f_glo): GlobalContextExtractor(
          (avg_pool): AdaptiveAvgPool2d(output_size=1)
          (fc): Sequential(
            (0): Linear(in_features=64, out_features=8, bias=True)
            (1): ReLU(inplace=True)
            (2): Linear(in_features=8, out_features=64, bias=True)
            (3): Sigmoid()
          )
        )
      )
      (2): ContextGuidedBlock(
        (conv1x1): ConvModule(
          (conv): Conv2d(64, 32, kernel_size=(1, 1), stride=(1, 1), bias=False)
          (bn): _BatchNormXd(32, eps=0.001, momentum=0.1, affine=True, track_running_stats=True)
          (activate): PReLU(num_parameters=32)
        )
        (f_loc): Conv2d(32, 32, kernel_size=(3, 3), stride=(1, 1), padding=(1, 1), groups=32, bias=False)
        (f_sur): Conv2d(32, 32, kernel_size=(3, 3), stride=(1, 1), padding=(2, 2), dilation=(2, 2), groups=32, bias=False)
        (bn): _BatchNormXd(64, eps=0.001, momentum=0.1, affine=True, track_running_stats=True)
        (activate): PReLU(num_parameters=64)
        (f_glo): GlobalContextExtractor(
          (avg_pool): AdaptiveAvgPool2d(output_size=1)
          (fc): Sequential(
            (0): Linear(in_features=64, out_features=8, bias=True)
            (1): ReLU(inplace=True)
            (2): Linear(in_features=8, out_features=64, bias=True)
            (3): Sigmoid()
          )
        )
      )
    )
    (norm_prelu_1): Sequential(
      (0): _BatchNormXd(131, eps=0.001, momentum=0.1, affine=True, track_running_stats=True)
      (1): PReLU(num_parameters=131)
    )
    (level2): ModuleList(
      (0): ContextGuidedBlock(
        (conv1x1): ConvModule(
          (conv): Conv2d(131, 128, kernel_size=(3, 3), stride=(2, 2), padding=(1, 1), bias=False)
          (bn): _BatchNormXd(128, eps=0.001, momentum=0.1, affine=True, track_running_stats=True)
          (activate): PReLU(num_parameters=128)
        )
        (f_loc): Conv2d(128, 128, kernel_size=(3, 3), stride=(1, 1), padding=(1, 1), groups=128, bias=False)
        (f_sur): Conv2d(128, 128, kernel_size=(3, 3), stride=(1, 1), padding=(4, 4), dilation=(4, 4), groups=128, bias=False)
        (bn): _BatchNormXd(256, eps=0.001, momentum=0.1, affine=True, track_running_stats=True)
        (activate): PReLU(num_parameters=256)
        (bottleneck): Conv2d(256, 128, kernel_size=(1, 1), stride=(1, 1), bias=False)
        (f_glo): GlobalContextExtractor(
          (avg_pool): AdaptiveAvgPool2d(output_size=1)
          (fc): Sequential(
            (0): Linear(in_features=128, out_features=8, bias=True)
            (1): ReLU(inplace=True)
            (2): Linear(in_features=8, out_features=128, bias=True)
            (3): Sigmoid()
          )
        )
      )
      (1): ContextGuidedBlock(
        (conv1x1): ConvModule(
          (conv): Conv2d(128, 64, kernel_size=(1, 1), stride=(1, 1), bias=False)
          (bn): _BatchNormXd(64, eps=0.001, momentum=0.1, affine=True, track_running_stats=True)
          (activate): PReLU(num_parameters=64)
        )
        (f_loc): Conv2d(64, 64, kernel_size=(3, 3), stride=(1, 1), padding=(1, 1), groups=64, bias=False)
        (f_sur): Conv2d(64, 64, kernel_size=(3, 3), stride=(1, 1), padding=(4, 4), dilation=(4, 4), groups=64, bias=False)
        (bn): _BatchNormXd(128, eps=0.001, momentum=0.1, affine=True, track_running_stats=True)
        (activate): PReLU(num_parameters=128)
        (f_glo): GlobalContextExtractor(
          (avg_pool): AdaptiveAvgPool2d(output_size=1)
          (fc): Sequential(
            (0): Linear(in_features=128, out_features=8, bias=True)
            (1): ReLU(inplace=True)
            (2): Linear(in_features=8, out_features=128, bias=True)
            (3): Sigmoid()
          )
        )
      )
      (2): ContextGuidedBlock(
        (conv1x1): ConvModule(
          (conv): Conv2d(128, 64, kernel_size=(1, 1), stride=(1, 1), bias=False)
          (bn): _BatchNormXd(64, eps=0.001, momentum=0.1, affine=True, track_running_stats=True)
          (activate): PReLU(num_parameters=64)
        )
        (f_loc): Conv2d(64, 64, kernel_size=(3, 3), stride=(1, 1), padding=(1, 1), groups=64, bias=False)
        (f_sur): Conv2d(64, 64, kernel_size=(3, 3), stride=(1, 1), padding=(4, 4), dilation=(4, 4), groups=64, bias=False)
        (bn): _BatchNormXd(128, eps=0.001, momentum=0.1, affine=True, track_running_stats=True)
        (activate): PReLU(num_parameters=128)
        (f_glo): GlobalContextExtractor(
          (avg_pool): AdaptiveAvgPool2d(output_size=1)
          (fc): Sequential(
            (0): Linear(in_features=128, out_features=8, bias=True)
            (1): ReLU(inplace=True)
            (2): Linear(in_features=8, out_features=128, bias=True)
            (3): Sigmoid()
          )
        )
      )
      (3): ContextGuidedBlock(
        (conv1x1): ConvModule(
          (conv): Conv2d(128, 64, kernel_size=(1, 1), stride=(1, 1), bias=False)
          (bn): _BatchNormXd(64, eps=0.001, momentum=0.1, affine=True, track_running_stats=True)
          (activate): PReLU(num_parameters=64)
        )
        (f_loc): Conv2d(64, 64, kernel_size=(3, 3), stride=(1, 1), padding=(1, 1), groups=64, bias=False)
        (f_sur): Conv2d(64, 64, kernel_size=(3, 3), stride=(1, 1), padding=(4, 4), dilation=(4, 4), groups=64, bias=False)
        (bn): _BatchNormXd(128, eps=0.001, momentum=0.1, affine=True, track_running_stats=True)
        (activate): PReLU(num_parameters=128)
        (f_glo): GlobalContextExtractor(
          (avg_pool): AdaptiveAvgPool2d(output_size=1)
          (fc): Sequential(
            (0): Linear(in_features=128, out_features=8, bias=True)
            (1): ReLU(inplace=True)
            (2): Linear(in_features=8, out_features=128, bias=True)
            (3): Sigmoid()
          )
        )
      )
      (4): ContextGuidedBlock(
        (conv1x1): ConvModule(
          (conv): Conv2d(128, 64, kernel_size=(1, 1), stride=(1, 1), bias=False)
          (bn): _BatchNormXd(64, eps=0.001, momentum=0.1, affine=True, track_running_stats=True)
          (activate): PReLU(num_parameters=64)
        )
        (f_loc): Conv2d(64, 64, kernel_size=(3, 3), stride=(1, 1), padding=(1, 1), groups=64, bias=False)
        (f_sur): Conv2d(64, 64, kernel_size=(3, 3), stride=(1, 1), padding=(4, 4), dilation=(4, 4), groups=64, bias=False)
        (bn): _BatchNormXd(128, eps=0.001, momentum=0.1, affine=True, track_running_stats=True)
        (activate): PReLU(num_parameters=128)
        (f_glo): GlobalContextExtractor(
          (avg_pool): AdaptiveAvgPool2d(output_size=1)
          (fc): Sequential(
            (0): Linear(in_features=128, out_features=8, bias=True)
            (1): ReLU(inplace=True)
            (2): Linear(in_features=8, out_features=128, bias=True)
            (3): Sigmoid()
          )
        )
      )
      (5): ContextGuidedBlock(
        (conv1x1): ConvModule(
          (conv): Conv2d(128, 64, kernel_size=(1, 1), stride=(1, 1), bias=False)
          (bn): _BatchNormXd(64, eps=0.001, momentum=0.1, affine=True, track_running_stats=True)
          (activate): PReLU(num_parameters=64)
        )
        (f_loc): Conv2d(64, 64, kernel_size=(3, 3), stride=(1, 1), padding=(1, 1), groups=64, bias=False)
        (f_sur): Conv2d(64, 64, kernel_size=(3, 3), stride=(1, 1), padding=(4, 4), dilation=(4, 4), groups=64, bias=False)
        (bn): _BatchNormXd(128, eps=0.001, momentum=0.1, affine=True, track_running_stats=True)
        (activate): PReLU(num_parameters=128)
        (f_glo): GlobalContextExtractor(
          (avg_pool): AdaptiveAvgPool2d(output_size=1)
          (fc): Sequential(
            (0): Linear(in_features=128, out_features=8, bias=True)
            (1): ReLU(inplace=True)
            (2): Linear(in_features=8, out_features=128, bias=True)
            (3): Sigmoid()
          )
        )
      )
      (6): ContextGuidedBlock(
        (conv1x1): ConvModule(
          (conv): Conv2d(128, 64, kernel_size=(1, 1), stride=(1, 1), bias=False)
          (bn): _BatchNormXd(64, eps=0.001, momentum=0.1, affine=True, track_running_stats=True)
          (activate): PReLU(num_parameters=64)
        )
        (f_loc): Conv2d(64, 64, kernel_size=(3, 3), stride=(1, 1), padding=(1, 1), groups=64, bias=False)
        (f_sur): Conv2d(64, 64, kernel_size=(3, 3), stride=(1, 1), padding=(4, 4), dilation=(4, 4), groups=64, bias=False)
        (bn): _BatchNormXd(128, eps=0.001, momentum=0.1, affine=True, track_running_stats=True)
        (activate): PReLU(num_parameters=128)
        (f_glo): GlobalContextExtractor(
          (avg_pool): AdaptiveAvgPool2d(output_size=1)
          (fc): Sequential(
            (0): Linear(in_features=128, out_features=8, bias=True)
            (1): ReLU(inplace=True)
            (2): Linear(in_features=8, out_features=128, bias=True)
            (3): Sigmoid()
          )
        )
      )
      (7): ContextGuidedBlock(
        (conv1x1): ConvModule(
          (conv): Conv2d(128, 64, kernel_size=(1, 1), stride=(1, 1), bias=False)
          (bn): _BatchNormXd(64, eps=0.001, momentum=0.1, affine=True, track_running_stats=True)
          (activate): PReLU(num_parameters=64)
        )
        (f_loc): Conv2d(64, 64, kernel_size=(3, 3), stride=(1, 1), padding=(1, 1), groups=64, bias=False)
        (f_sur): Conv2d(64, 64, kernel_size=(3, 3), stride=(1, 1), padding=(4, 4), dilation=(4, 4), groups=64, bias=False)
        (bn): _BatchNormXd(128, eps=0.001, momentum=0.1, affine=True, track_running_stats=True)
        (activate): PReLU(num_parameters=128)
        (f_glo): GlobalContextExtractor(
          (avg_pool): AdaptiveAvgPool2d(output_size=1)
          (fc): Sequential(
            (0): Linear(in_features=128, out_features=8, bias=True)
            (1): ReLU(inplace=True)
            (2): Linear(in_features=8, out_features=128, bias=True)
            (3): Sigmoid()
          )
        )
      )
      (8): ContextGuidedBlock(
        (conv1x1): ConvModule(
          (conv): Conv2d(128, 64, kernel_size=(1, 1), stride=(1, 1), bias=False)
          (bn): _BatchNormXd(64, eps=0.001, momentum=0.1, affine=True, track_running_stats=True)
          (activate): PReLU(num_parameters=64)
        )
        (f_loc): Conv2d(64, 64, kernel_size=(3, 3), stride=(1, 1), padding=(1, 1), groups=64, bias=False)
        (f_sur): Conv2d(64, 64, kernel_size=(3, 3), stride=(1, 1), padding=(4, 4), dilation=(4, 4), groups=64, bias=False)
        (bn): _BatchNormXd(128, eps=0.001, momentum=0.1, affine=True, track_running_stats=True)
        (activate): PReLU(num_parameters=128)
        (f_glo): GlobalContextExtractor(
          (avg_pool): AdaptiveAvgPool2d(output_size=1)
          (fc): Sequential(
            (0): Linear(in_features=128, out_features=8, bias=True)
            (1): ReLU(inplace=True)
            (2): Linear(in_features=8, out_features=128, bias=True)
            (3): Sigmoid()
          )
        )
      )
      (9): ContextGuidedBlock(
        (conv1x1): ConvModule(
          (conv): Conv2d(128, 64, kernel_size=(1, 1), stride=(1, 1), bias=False)
          (bn): _BatchNormXd(64, eps=0.001, momentum=0.1, affine=True, track_running_stats=True)
          (activate): PReLU(num_parameters=64)
        )
        (f_loc): Conv2d(64, 64, kernel_size=(3, 3), stride=(1, 1), padding=(1, 1), groups=64, bias=False)
        (f_sur): Conv2d(64, 64, kernel_size=(3, 3), stride=(1, 1), padding=(4, 4), dilation=(4, 4), groups=64, bias=False)
        (bn): _BatchNormXd(128, eps=0.001, momentum=0.1, affine=True, track_running_stats=True)
        (activate): PReLU(num_parameters=128)
        (f_glo): GlobalContextExtractor(
          (avg_pool): AdaptiveAvgPool2d(output_size=1)
          (fc): Sequential(
            (0): Linear(in_features=128, out_features=8, bias=True)
            (1): ReLU(inplace=True)
            (2): Linear(in_features=8, out_features=128, bias=True)
            (3): Sigmoid()
          )
        )
      )
      (10): ContextGuidedBlock(
        (conv1x1): ConvModule(
          (conv): Conv2d(128, 64, kernel_size=(1, 1), stride=(1, 1), bias=False)
          (bn): _BatchNormXd(64, eps=0.001, momentum=0.1, affine=True, track_running_stats=True)
          (activate): PReLU(num_parameters=64)
        )
        (f_loc): Conv2d(64, 64, kernel_size=(3, 3), stride=(1, 1), padding=(1, 1), groups=64, bias=False)
        (f_sur): Conv2d(64, 64, kernel_size=(3, 3), stride=(1, 1), padding=(4, 4), dilation=(4, 4), groups=64, bias=False)
        (bn): _BatchNormXd(128, eps=0.001, momentum=0.1, affine=True, track_running_stats=True)
        (activate): PReLU(num_parameters=128)
        (f_glo): GlobalContextExtractor(
          (avg_pool): AdaptiveAvgPool2d(output_size=1)
          (fc): Sequential(
            (0): Linear(in_features=128, out_features=8, bias=True)
            (1): ReLU(inplace=True)
            (2): Linear(in_features=8, out_features=128, bias=True)
            (3): Sigmoid()
          )
        )
      )
      (11): ContextGuidedBlock(
        (conv1x1): ConvModule(
          (conv): Conv2d(128, 64, kernel_size=(1, 1), stride=(1, 1), bias=False)
          (bn): _BatchNormXd(64, eps=0.001, momentum=0.1, affine=True, track_running_stats=True)
          (activate): PReLU(num_parameters=64)
        )
        (f_loc): Conv2d(64, 64, kernel_size=(3, 3), stride=(1, 1), padding=(1, 1), groups=64, bias=False)
        (f_sur): Conv2d(64, 64, kernel_size=(3, 3), stride=(1, 1), padding=(4, 4), dilation=(4, 4), groups=64, bias=False)
        (bn): _BatchNormXd(128, eps=0.001, momentum=0.1, affine=True, track_running_stats=True)
        (activate): PReLU(num_parameters=128)
        (f_glo): GlobalContextExtractor(
          (avg_pool): AdaptiveAvgPool2d(output_size=1)
          (fc): Sequential(
            (0): Linear(in_features=128, out_features=8, bias=True)
            (1): ReLU(inplace=True)
            (2): Linear(in_features=8, out_features=128, bias=True)
            (3): Sigmoid()
          )
        )
      )
      (12): ContextGuidedBlock(
        (conv1x1): ConvModule(
          (conv): Conv2d(128, 64, kernel_size=(1, 1), stride=(1, 1), bias=False)
          (bn): _BatchNormXd(64, eps=0.001, momentum=0.1, affine=True, track_running_stats=True)
          (activate): PReLU(num_parameters=64)
        )
        (f_loc): Conv2d(64, 64, kernel_size=(3, 3), stride=(1, 1), padding=(1, 1), groups=64, bias=False)
        (f_sur): Conv2d(64, 64, kernel_size=(3, 3), stride=(1, 1), padding=(4, 4), dilation=(4, 4), groups=64, bias=False)
        (bn): _BatchNormXd(128, eps=0.001, momentum=0.1, affine=True, track_running_stats=True)
        (activate): PReLU(num_parameters=128)
        (f_glo): GlobalContextExtractor(
          (avg_pool): AdaptiveAvgPool2d(output_size=1)
          (fc): Sequential(
            (0): Linear(in_features=128, out_features=8, bias=True)
            (1): ReLU(inplace=True)
            (2): Linear(in_features=8, out_features=128, bias=True)
            (3): Sigmoid()
          )
        )
      )
      (13): ContextGuidedBlock(
        (conv1x1): ConvModule(
          (conv): Conv2d(128, 64, kernel_size=(1, 1), stride=(1, 1), bias=False)
          (bn): _BatchNormXd(64, eps=0.001, momentum=0.1, affine=True, track_running_stats=True)
          (activate): PReLU(num_parameters=64)
        )
        (f_loc): Conv2d(64, 64, kernel_size=(3, 3), stride=(1, 1), padding=(1, 1), groups=64, bias=False)
        (f_sur): Conv2d(64, 64, kernel_size=(3, 3), stride=(1, 1), padding=(4, 4), dilation=(4, 4), groups=64, bias=False)
        (bn): _BatchNormXd(128, eps=0.001, momentum=0.1, affine=True, track_running_stats=True)
        (activate): PReLU(num_parameters=128)
        (f_glo): GlobalContextExtractor(
          (avg_pool): AdaptiveAvgPool2d(output_size=1)
          (fc): Sequential(
            (0): Linear(in_features=128, out_features=8, bias=True)
            (1): ReLU(inplace=True)
            (2): Linear(in_features=8, out_features=128, bias=True)
            (3): Sigmoid()
          )
        )
      )
      (14): ContextGuidedBlock(
        (conv1x1): ConvModule(
          (conv): Conv2d(128, 64, kernel_size=(1, 1), stride=(1, 1), bias=False)
          (bn): _BatchNormXd(64, eps=0.001, momentum=0.1, affine=True, track_running_stats=True)
          (activate): PReLU(num_parameters=64)
        )
        (f_loc): Conv2d(64, 64, kernel_size=(3, 3), stride=(1, 1), padding=(1, 1), groups=64, bias=False)
        (f_sur): Conv2d(64, 64, kernel_size=(3, 3), stride=(1, 1), padding=(4, 4), dilation=(4, 4), groups=64, bias=False)
        (bn): _BatchNormXd(128, eps=0.001, momentum=0.1, affine=True, track_running_stats=True)
        (activate): PReLU(num_parameters=128)
        (f_glo): GlobalContextExtractor(
          (avg_pool): AdaptiveAvgPool2d(output_size=1)
          (fc): Sequential(
            (0): Linear(in_features=128, out_features=8, bias=True)
            (1): ReLU(inplace=True)
            (2): Linear(in_features=8, out_features=128, bias=True)
            (3): Sigmoid()
          )
        )
      )
      (15): ContextGuidedBlock(
        (conv1x1): ConvModule(
          (conv): Conv2d(128, 64, kernel_size=(1, 1), stride=(1, 1), bias=False)
          (bn): _BatchNormXd(64, eps=0.001, momentum=0.1, affine=True, track_running_stats=True)
          (activate): PReLU(num_parameters=64)
        )
        (f_loc): Conv2d(64, 64, kernel_size=(3, 3), stride=(1, 1), padding=(1, 1), groups=64, bias=False)
        (f_sur): Conv2d(64, 64, kernel_size=(3, 3), stride=(1, 1), padding=(4, 4), dilation=(4, 4), groups=64, bias=False)
        (bn): _BatchNormXd(128, eps=0.001, momentum=0.1, affine=True, track_running_stats=True)
        (activate): PReLU(num_parameters=128)
        (f_glo): GlobalContextExtractor(
          (avg_pool): AdaptiveAvgPool2d(output_size=1)
          (fc): Sequential(
            (0): Linear(in_features=128, out_features=8, bias=True)
            (1): ReLU(inplace=True)
            (2): Linear(in_features=8, out_features=128, bias=True)
            (3): Sigmoid()
          )
        )
      )
      (16): ContextGuidedBlock(
        (conv1x1): ConvModule(
          (conv): Conv2d(128, 64, kernel_size=(1, 1), stride=(1, 1), bias=False)
          (bn): _BatchNormXd(64, eps=0.001, momentum=0.1, affine=True, track_running_stats=True)
          (activate): PReLU(num_parameters=64)
        )
        (f_loc): Conv2d(64, 64, kernel_size=(3, 3), stride=(1, 1), padding=(1, 1), groups=64, bias=False)
        (f_sur): Conv2d(64, 64, kernel_size=(3, 3), stride=(1, 1), padding=(4, 4), dilation=(4, 4), groups=64, bias=False)
        (bn): _BatchNormXd(128, eps=0.001, momentum=0.1, affine=True, track_running_stats=True)
        (activate): PReLU(num_parameters=128)
        (f_glo): GlobalContextExtractor(
          (avg_pool): AdaptiveAvgPool2d(output_size=1)
          (fc): Sequential(
            (0): Linear(in_features=128, out_features=8, bias=True)
            (1): ReLU(inplace=True)
            (2): Linear(in_features=8, out_features=128, bias=True)
            (3): Sigmoid()
          )
        )
      )
      (17): ContextGuidedBlock(
        (conv1x1): ConvModule(
          (conv): Conv2d(128, 64, kernel_size=(1, 1), stride=(1, 1), bias=False)
          (bn): _BatchNormXd(64, eps=0.001, momentum=0.1, affine=True, track_running_stats=True)
          (activate): PReLU(num_parameters=64)
        )
        (f_loc): Conv2d(64, 64, kernel_size=(3, 3), stride=(1, 1), padding=(1, 1), groups=64, bias=False)
        (f_sur): Conv2d(64, 64, kernel_size=(3, 3), stride=(1, 1), padding=(4, 4), dilation=(4, 4), groups=64, bias=False)
        (bn): _BatchNormXd(128, eps=0.001, momentum=0.1, affine=True, track_running_stats=True)
        (activate): PReLU(num_parameters=128)
        (f_glo): GlobalContextExtractor(
          (avg_pool): AdaptiveAvgPool2d(output_size=1)
          (fc): Sequential(
            (0): Linear(in_features=128, out_features=8, bias=True)
            (1): ReLU(inplace=True)
            (2): Linear(in_features=8, out_features=128, bias=True)
            (3): Sigmoid()
          )
        )
      )
      (18): ContextGuidedBlock(
        (conv1x1): ConvModule(
          (conv): Conv2d(128, 64, kernel_size=(1, 1), stride=(1, 1), bias=False)
          (bn): _BatchNormXd(64, eps=0.001, momentum=0.1, affine=True, track_running_stats=True)
          (activate): PReLU(num_parameters=64)
        )
        (f_loc): Conv2d(64, 64, kernel_size=(3, 3), stride=(1, 1), padding=(1, 1), groups=64, bias=False)
        (f_sur): Conv2d(64, 64, kernel_size=(3, 3), stride=(1, 1), padding=(4, 4), dilation=(4, 4), groups=64, bias=False)
        (bn): _BatchNormXd(128, eps=0.001, momentum=0.1, affine=True, track_running_stats=True)
        (activate): PReLU(num_parameters=128)
        (f_glo): GlobalContextExtractor(
          (avg_pool): AdaptiveAvgPool2d(output_size=1)
          (fc): Sequential(
            (0): Linear(in_features=128, out_features=8, bias=True)
            (1): ReLU(inplace=True)
            (2): Linear(in_features=8, out_features=128, bias=True)
            (3): Sigmoid()
          )
        )
      )
      (19): ContextGuidedBlock(
        (conv1x1): ConvModule(
          (conv): Conv2d(128, 64, kernel_size=(1, 1), stride=(1, 1), bias=False)
          (bn): _BatchNormXd(64, eps=0.001, momentum=0.1, affine=True, track_running_stats=True)
          (activate): PReLU(num_parameters=64)
        )
        (f_loc): Conv2d(64, 64, kernel_size=(3, 3), stride=(1, 1), padding=(1, 1), groups=64, bias=False)
        (f_sur): Conv2d(64, 64, kernel_size=(3, 3), stride=(1, 1), padding=(4, 4), dilation=(4, 4), groups=64, bias=False)
        (bn): _BatchNormXd(128, eps=0.001, momentum=0.1, affine=True, track_running_stats=True)
        (activate): PReLU(num_parameters=128)
        (f_glo): GlobalContextExtractor(
          (avg_pool): AdaptiveAvgPool2d(output_size=1)
          (fc): Sequential(
            (0): Linear(in_features=128, out_features=8, bias=True)
            (1): ReLU(inplace=True)
            (2): Linear(in_features=8, out_features=128, bias=True)
            (3): Sigmoid()
          )
        )
      )
      (20): ContextGuidedBlock(
        (conv1x1): ConvModule(
          (conv): Conv2d(128, 64, kernel_size=(1, 1), stride=(1, 1), bias=False)
          (bn): _BatchNormXd(64, eps=0.001, momentum=0.1, affine=True, track_running_stats=True)
          (activate): PReLU(num_parameters=64)
        )
        (f_loc): Conv2d(64, 64, kernel_size=(3, 3), stride=(1, 1), padding=(1, 1), groups=64, bias=False)
        (f_sur): Conv2d(64, 64, kernel_size=(3, 3), stride=(1, 1), padding=(4, 4), dilation=(4, 4), groups=64, bias=False)
        (bn): _BatchNormXd(128, eps=0.001, momentum=0.1, affine=True, track_running_stats=True)
        (activate): PReLU(num_parameters=128)
        (f_glo): GlobalContextExtractor(
          (avg_pool): AdaptiveAvgPool2d(output_size=1)
          (fc): Sequential(
            (0): Linear(in_features=128, out_features=8, bias=True)
            (1): ReLU(inplace=True)
            (2): Linear(in_features=8, out_features=128, bias=True)
            (3): Sigmoid()
          )
        )
      )
    )
    (norm_prelu_2): Sequential(
      (0): _BatchNormXd(256, eps=0.001, momentum=0.1, affine=True, track_running_stats=True)
      (1): PReLU(num_parameters=256)
    )
  )
  init_cfg=[{'type': 'Kaiming', 'layer': ['Conv2d', 'Linear']}, {'type': 'Constant', 'val': 1, 'layer': ['_BatchNorm', 'GroupNorm']}, {'type': 'Constant', 'val': 0, 'layer': 'PReLU'}]
  (decode_head): FCNHead(
    input_transform=None, ignore_index=255, align_corners=False
    (loss_decode): CrossEntropyLoss(avg_non_ignore=False)
    (conv_seg): Conv2d(256, 21, kernel_size=(1, 1), stride=(1, 1))
    (convs): Identity()
  )
  init_cfg={'type': 'Normal', 'std': 0.01, 'override': {'name': 'conv_seg'}}
)
2023-02-13 22:27:03,302 - mmseg - INFO - Loaded 209 images
2023-02-13 22:27:08,776 - mmseg - INFO - Loaded 213 images
2023-02-13 22:27:08,777 - mmseg - INFO - load checkpoint from local path: /HOME/scz0aua/run/mmsegmentation-master/checkpoints/cgnet_680x680_60k_cityscapes_20201101_110253-4c0b2f2d.pth
…
